…
==================== 开始数据集划分 ====================
数据集划分完成 - 训练集: 700, 验证集: 150, 测试集: 150
==================== 数据集划分完成 ====================


=== 正在训练 deeper_model ===
[DEBUG] X_train原始形状: (700, 64, 64, 16)
[DEBUG] y_train形状: (700,)
Model: "model"
_________________________________________________________________
Layer (type)                 Output Shape              Param #
=================================================================
input_1 (InputLayer)         [(None, 64, 64, 16)]      0
_________________________________________________________________
conv2d (Conv2D)              (None, 64, 64, 64)        9280
_________________________________________________________________
batch_normalization (BatchNo (None, 64, 64, 64)        256
_________________________________________________________________
max_pooling2d (MaxPooling2D) (None, 32, 32, 64)        0
_________________________________________________________________
dropout (Dropout)            (None, 32, 32, 64)        0
_________________________________________________________________
conv2d_1 (Conv2D)            (None, 32, 32, 128)       73856
_________________________________________________________________
batch_normalization_1 (Batch (None, 32, 32, 128)       512
_________________________________________________________________
max_pooling2d_1 (MaxPooling2 (None, 16, 16, 128)       0
_________________________________________________________________
dropout_1 (Dropout)          (None, 16, 16, 128)       0
_________________________________________________________________
conv2d_2 (Conv2D)            (None, 16, 16, 256)       295168
_________________________________________________________________
batch_normalization_2 (Batch (None, 16, 16, 256)       1024
_________________________________________________________________
max_pooling2d_2 (MaxPooling2 (None, 8, 8, 256)         0
_________________________________________________________________
flatten (Flatten)            (None, 16384)             0
_________________________________________________________________
dropout_2 (Dropout)          (None, 16384)             0
_________________________________________________________________
dense (Dense)                (None, 512)               8389120
_________________________________________________________________
dropout_3 (Dropout)          (None, 512)               0
_________________________________________________________________
dense_1 (Dense)              (None, 50)                25650
=================================================================
Total params: 8,794,866
Trainable params: 8,793,970
Non-trainable params: 896
Epoch 1/150
22/22 [==============================] - 23s 1s/step - loss: 8.8051 - accuracy: 0.0314 - val_loss: 4.0204 - val_accuracy: 0.0400
Epoch 2/150
22/22 [==============================] - 25s 1s/step - loss: 4.2394 - accuracy: 0.0471 - val_loss: 4.0055 - val_accuracy: 0.0333
…
22/22 [==============================] - 24s 1s/step - loss: 2.7762 - accuracy: 0.1714 - val_loss: 3.0399 - val_accuracy: 0.2533
Epoch 78/150
22/22 [==============================] - 25s 1s/step - loss: 2.7496 - accuracy: 0.1757 - val_loss: 3.0541 - val_accuracy: 0.2600
[DEBUG] 模型训练完成

=== 正在训练 2dcnn ===
[DEBUG] X_train原始形状: (700, 64, 64, 16)
[DEBUG] y_train形状: (700,)
Model: "sequential"
_________________________________________________________________
Layer (type)                 Output Shape              Param #
=================================================================
conv2d_3 (Conv2D)            (None, 64, 64, 64)        9280
_________________________________________________________________
batch_normalization_3 (Batch (None, 64, 64, 64)        256
_________________________________________________________________
max_pooling2d_3 (MaxPooling2 (None, 32, 32, 64)        0
_________________________________________________________________
dropout_4 (Dropout)          (None, 32, 32, 64)        0
_________________________________________________________________
conv2d_4 (Conv2D)            (None, 32, 32, 128)       73856
_________________________________________________________________
batch_normalization_4 (Batch (None, 32, 32, 128)       512
_________________________________________________________________
max_pooling2d_4 (MaxPooling2 (None, 16, 16, 128)       0
_________________________________________________________________
dropout_5 (Dropout)          (None, 16, 16, 128)       0
_________________________________________________________________
conv2d_5 (Conv2D)            (None, 16, 16, 256)       295168
_________________________________________________________________
batch_normalization_5 (Batch (None, 16, 16, 256)       1024
_________________________________________________________________
global_average_pooling2d (Gl (None, 256)               0
_________________________________________________________________
dense_2 (Dense)              (None, 512)               131584
_________________________________________________________________
dropout_6 (Dropout)          (None, 512)               0
_________________________________________________________________
dense_3 (Dense)              (None, 50)                25650
=================================================================
Total params: 537,330
Trainable params: 536,434
Non-trainable params: 896
_________________________________________________________________

Epoch 1/150
22/22 [==============================] - 17s 766ms/step - loss: 3.9197 - accuracy: 0.0443 - val_loss: 3.9506 - val_accuracy: 0.0200
Epoch 2/150
22/22 [==============================] - 17s 758ms/step - loss: 3.5051 - accuracy: 0.0714 - val_loss: 3.6342 - val_accuracy: 0.0467
…
700/700 [==============================] - 2s 3ms/sample - loss: 0.1488 - accuracy: 1.0000 - val_loss: 3.4042 - val_accuracy: 0.2000
[DEBUG] 模型训练完成
=== 正在训练 1dcnn_lstm ===
[DEBUG] X_train原始形状: (700, 64, 64, 16)
[DEBUG] y_train形状: (700,)
[DEBUG] 时序模型维度检查 h=64, w=64, c=16
[DEBUG] 总特征数计算: 64*64*16=65536
[DEBUG] 输入形状设置: (16, 4096)
[DEBUG] 预处理后形状 - 训练集: (700, 16, 4096), 验证集: (150, 16, 4096)
Model: "sequential_2"
_________________________________________________________________
Layer (type)                 Output Shape              Param #
=================================================================
conv1d (Conv1D)              (None, 16, 64)            786496
_________________________________________________________________
batch_normalization_6 (Batch (None, 16, 64)            256
_________________________________________________________________
dropout_7 (Dropout)          (None, 16, 64)            0
_________________________________________________________________
lstm_1 (LSTM)                (None, 128)               98816
_________________________________________________________________
dense_6 (Dense)              (None, 64)                8256
_________________________________________________________________
dense_7 (Dense)              (None, 50)                3250
=================================================================
Total params: 897,074
Trainable params: 896,946
Non-trainable params: 128
_________________________________________________________________
Train on 700 samples, validate on 150 samples
Epoch 1/150
672/700 [===========================>..] - ETA: 0s - loss: 3.8825 - accuracy: 0.03122025-05-11 15:08:56.843740: W 
700/700 [==============================] - 5s 7ms/sample - loss: 3.8810 - accuracy: 0.0329 - val_loss: 3.9048 - val_accuracy: 0.0067
…
700/700 [==============================] - 1s 2ms/sample - loss: 0.0952 - accuracy: 0.9800 - val_loss: 4.0496 - val_accuracy: 0.2733
[DEBUG] 模型训练完成

=== 正在训练 1dcnn_pool_lstm ===
[DEBUG] X_train原始形状: (700, 64, 64, 16)
[DEBUG] y_train形状: (700,)
[DEBUG] 时序模型维度检查 h=64, w=64, c=16
[DEBUG] 总特征数计算: 64*64*16=65536
[DEBUG] 输入形状设置: (16, 4096)
[DEBUG] 预处理后形状 - 训练集: (700, 16, 4096), 验证集: (150, 16, 4096)
Model: "sequential_3"
_________________________________________________________________
Layer (type)                 Output Shape              Param #
=================================================================
conv1d_1 (Conv1D)            (None, 16, 64)            786496
_________________________________________________________________
batch_normalization_7 (Batch (None, 16, 64)            256
_________________________________________________________________
max_pooling1d (MaxPooling1D) (None, 8, 64)             0
_________________________________________________________________
dropout_8 (Dropout)          (None, 8, 64)             0
_________________________________________________________________
lstm_2 (LSTM)                (None, 128)               98816
_________________________________________________________________
dense_8 (Dense)              (None, 64)                8256
_________________________________________________________________
dense_9 (Dense)              (None, 50)                3250
=================================================================
Total params: 897,074
Trainable params: 896,946
Non-trainable params: 128
_________________________________________________________________
Train on 700 samples, validate on 150 samples
Epoch 1/150
672/700 [===========================>..] - ETA: 0s - loss: 3.8688 - accuracy: 0.04612025-05-11 15:09:55.519385: W ====] - 5s 7ms/sample - loss: 3.8664 - accuracy: 0.0471 - val_loss: 3.8640 - val_accuracy: 0.0400
…
